saved_models/tte-wikipedia-node-classification.pth (torch, 62157 bytes, 5 tensors)

fc_1.weight f4 [80, 172]
-0.0559173 -0.0038782747 0.08826797 0.012132327 -0.044026244 -0.037359785 -0.03870191 -0.029030077
-0.036918126 -0.07356163 -0.07564988 0.05867262 -0.012068459 -0.0118949115 -0.10835943 -0.052122843
-0.005207896 0.06404983 0.023109987 -0.054508958 0.03408515 -0.044022135 0.030057965 0.06288741
-0.017537203 -0.05163955 -0.01304527 -0.031440314 -0.019407356 0.048631944 0.011261576 0.030690458
-0.020432036 -0.030318165 0.07335198 -0.040916946 -0.08693842 0.06635753 0.055612586 0.019343643
0.019084392 0.028640207 -0.040008135 -0.073172085 0.03438417 0.059302907 -0.015614848 0.05724459
0.040621124 0.057198852 0.09843067 0.023474095 0.0007624094 0.0024962502 0.012927623 0.08772678
-0.029831512 -0.043979954 -0.028552603 0.06911841 -0.031266015 0.029292941 0.02114754 0.07065387
-0.013352383 -0.04131921 0.014046926 0.11610049 0.006679525 0.0760933 -0.104645155 0.021700274
0.07063746 -0.06380372 -0.017343571 0.08176115 -0.01801512 -0.11803459 -0.08870864 0.049224418
-0.02768284 -0.025662757 0.041113086 -0.023258062 0.032130323 -0.044990364 0.01726723 -0.005838226
-0.08319908 0.008700673 0.015584182 -0.012174944 0.0070472257 0.09181783 0.012501972 0.034892812
0.022561613 -0.035191033 0.040352684 0.02270567 0.0133142425 -0.08648555 0.012462447 -0.000900782
-0.07453911 -0.04550275 0.020664586 -0.038116425 0.007935675 -0.059529483 -0.0051248055 -0.026931617
0.019808752 0.018182132 -0.05573536 -0.1567531 0.0369812 0.082143895 -0.014388824 -0.042131588
-0.011043131 -0.0030066315 -0.1203988 0.04475221 0.0037658988 0.08794984 0.019534927 0.02596415
-0.054444835 0.010033423 0.1014649 -0.04249308 -0.051137283 0.021183684 0.011039584 0.018283578
-0.084986195 -0.084979646 0.0044571604 0.029061573 -0.07114156 0.03556639 0.022733072 -0.054741282
0.061281357 -0.04814765 -0.082195856 0.0010695644 -0.013000488 0.028539276 0.019658504 0.030759087
-0.07131919 -0.059647597 0.028166307 0.10610977 0.043154955 -0.040211417 0.0077676894 0.07211962
-0.03862871 -0.05733935 -0.008003855 -0.028839992 -0.081690125 0.0038098 0.067372486 0.04729128
-0.022556229 -0.046915457 -0.013631598 -0.0048580007 -0.06175392 -0.027231323 0.08237477 -0.033806916
-0.05700945 -0.018756645 0.04687025 0.06271961 -0.06153661 -0.027571123 0.067655414 -0.0010817564
0.061184015 -0.01606812 0.040647183 -0.054190867 0.049903404 0.0064157797 0.008067443 0.014971161
0.056687277 0.08000971 0.07520746 -0.042993702 0.047000036 -0.069335684 0.06727212 -0.041446187
-0.042079538 0.065833926 -0.030908765 0.037211977 0.021106858 0.045707755 0.0054527805 0.058127422
-0.03946416 -0.01508664 -0.051924642 -0.037738644 -0.024679111 -0.051437028 0.00013509912 0.05221188
0.07248537 -0.031250574 0.045846898 0.002516853 -0.048849024 0.053723242 0.006631671 0.060284965
0.07406205 0.033043534 0.07567727 -0.055353463 -0.024779836 -0.07578979 -0.0477561 0.055060163
-0.06783048 0.04114055 0.042152323 0.019914115 -0.07513961 0.044685863 -0.062583864 0.03534935
-0.027096566 -0.01639696 0.021812264 -0.06281984 0.011522623 0.0551321 -0.0094308965 -0.010112588
0.027903417 -0.017260553 0.08667696 0.035015374 -0.02057152 -0.0028800406 -0.021498535 0.0024999897
00000000: 8a09 65bd a72a 7ebb d6c5 b43d abc6 463c
00000010: dd54 34bd 9306 19bd e585 1ebd 7cd0 edbc
00000020: 7637 17bd 7ba7 96bd 53ee 9abd b452 703d
00000030: c9ba 45bc e0e2 42bc 8deb ddbd c37e 55bd
00000040: 00a7 aabb 8f2c 833d 2851 bd3c c944 5fbd
00000050: df9c 0b3d 8e50 34bd 1f3c f63c 1dcb 803d
00000060: 2eaa 8fbc fe83 53bd d4bb 55bc 8fc7 00bd
00000070: 2dfc 9ebc 4a32 473d 7982 383c 8e6a fb3c
00000080: 1661 a7bc cd5d f8bc 9039 963d 8798 27bd
00000090: c50c b2bd 75e6 873d 06ca 633d 8f76 9e3c
000000a0: df56 9c3c de9e ea3c 92df 23bd 3fdb 95bd
000000b0: 6ad6 0c3d 9be7 723d 6bd5 7fbc 4e79 6a3d
000000c0: 5662 263d 5849 6a3d 0596 c93d bf4c c03c
000000d0: 6edc 473a 2198 233b 62ce 533c 19aa b33d
000000e0: 3761 f4bc 5324 34bd 26e7 e9bc f48d 8d3d
000000f0: cb10 00bd c0f7 ef3c 9b3d ad3c fab2 903d
00000100: f4c3 5abc 553e 29bd 1425 663c 18c6 ed3d
00000110: ebdf da3b ced6 9b3d 3350 d6bd c6c4 b13c
00000120: 5faa 903d 86ab 82bd 1b14 8ebc 6472 a73d
00000130: 7294 93bc 1ebc f1bd e0ac b5bd 8b9f 493d
00000140: 20c7 e2bc b43a d2bc 3266 283d b187 bebc
00000150: 169b 033d d147 38bd 0274 8d3c 974e bfbb
00000160: 4764 aabd 448d 0e3c cc54 7f3c 6b79 47bc
00000170: 6aec e63b fd0a bc3d 12d5 4c3c c4eb 0e3d
00000180: 22d3 b83c 7924 10bd db48 253d 3e01 ba3c
00000190: fb23 5a3c 561f b1bd 4b2f 4c3c 7522 6cba
000001a0: f6a7 98bd 1761 3abd c748 a93c f81f 1cbd
000001b0: a204 023c 30d5 73bd fced a7bb b29f dcbc
000001c0: f745 a23c b2f2 943c c34a 64bd e283 20be
000001d0: 9979 173d 0f3b a83d 1abf 6bbc 2c92 2cbd
000001e0: 40ee 34bc e80a 45bb a593 f6bd 184e 373d
000001f0: 4ccd 763b 0c1f b43d b607 a03c c5b2 d43c
00000200: 8c01 5fbd 3a63 243c d4cc cf3d 390d 2ebd
00000210: 5475 51bd 6889 ad3c 5fdf 343c 71c7 953c
00000220: 3e0d aebd cf09 aebd 5f0d 923b 8912 ee3c
00000230: abb2 91bd 10ae 113d b53a ba3c 6538 60bd
00000240: 2902 7b3d 7836 45bd 4d56 a8bd a030 8c3a
00000250: 0000 55bc 33cb e93c df0a a13c 7bfa fb3c
00000260: cc0f 92bd 0a51 74bd 07bd e63c 1450 d93d
00000270: 40c3 303d bab4 24bd 1a88 fe3b 74b3 933d
00000280: 2339 1ebd abdc 6abd 9a22 03bc d941 ecbc
00000290: 274d a7bd d6ad 793b 96fa 893d 80b4 413d
000002a0: d7c7 b8bc 6c2a 40bd 1157 5fbc dd2f 9fbb
000002b0: aef1 7cbd 3914 dfbc 1ab4 a83d 1f79 0abd
000002c0: be82 69bd 89a7 99bc 05fb 3f3d 2473 803d
000002d0: d00d 7cbd d6dc e1bc ec8e 8a3d b9c9 8dba
000002e0: 179c 7a3d 4aa1 83bc a97d 263d 3ef7 5dbd
000002f0: 8367 4c3d 763b d23b 4f2d 043c 9a49 753c
00000300: eb30 683d 21dc a33d 5e06 9a3d 2a1a 30bd
00000310: 1c83 403d deff 8dbd f7c5 893d 7ac3 29bd
00000320: 985b 2cbd f0d3 863d 6134 fdbc 966b 183d
00000330: 4ae8 ac3c 0e38 3b3d 3dad b23b 0517 6e3d
00000340: 2ca5 21bd f42d 77bc efae 54bd d693 1abd
00000350: d92b cabc a2af 52bd 65a9 0d39 20dc 553d
00000360: 3673 943d 9a00 00bd f5c9 3b3d c9f1 243b
00000370: ea15 48bd e70c 5c3d 7d4e d93b 5eed 763d
00000380: d8ad 973d a858 073d affc 9a3d 50ba 62bd
00000390: 15ff cabc ad37 9bbd e69b 43bd c486 613d
000003a0: b5ea 8abd fe82 283d eaa7 2c3d ed22 a33c
000003b0: cce2 99bd 8608 373d f82b 80bd 7bca 103d
000003c0: 9ef9 ddbc eb52 86bc a2af b23c b0a7 80bd
000003d0: 62c9 3c3c 32d2 613d 0c84 1abc 45af 25bc
000003e0: b595 e43c 0166 8dbc b183 b13d 486c 0f3d
000003f0: 9b85 a8bc 10bf 3cbb b21d b0bc ded6 233b

fc_1.bias f4 [80]
0.075470164 0.06840108 0.16776587 0.08793948 0.01584848 0.07654787 -0.10910962 0.12563013
0.021183884 -0.037066564 0.08255112 0.043564003 0.15019475 -0.022610925 0.09668558 0.055461824
0.076430924 0.07607979 0.13570295 -0.0027330413 0.003976632 0.08523368 0.03640708 0.07512585
0.06892885 0.085696846 -0.003308228 0.03967594 0.11307678 0.03461801 0.102658026 0.051806897
0.014895829 0.121675566 0.05699959 0.07531706 0.09320399 0.09119779 0.056801736 0.08934726
0.062574714 -0.022326285 0.015705265 -0.013426448 0.055155974 0.03957402 0.08582988 -0.013298102
0.032707393 0.12065691 0.024899675 0.092276156 0.01785386 -0.0665517 0.12592286 0.046575513
0.040510774 0.11328653 0.07290807 0.07454189 -0.04134172 0.067092754 0.028894275 0.061878253
0.085679635 -0.008824385 0.11787258 0.08882525 0.14433548 0.10223282 -0.026707899 -0.07161392
0.020543072 0.030147517 0.12618047 0.040600695 0.10644026 -0.059667617 0.042836 0.06919069
00000000: 1a90 9a3d de15 8c3d d1ca 2b3e 9d19 b43d
00000010: acd4 813c 21c5 9c3d dd74 dfbd 2fa5 003e
00000020: d389 ad3c 1cd3 17bd 9010 a93d 2b70 323d
00000030: a7cc 193e 8c3a b9bc 1703 c63d f02b 633d
00000040: d187 9c3d b9cf 9b3d b7f5 0a3e d31c 33bb
00000050: 684e 823b ff8e ae3d 971f 153d 95db 993d
00000060: 922a 8d3d d481 af3d dbce 58bb 3d83 223d
00000070: cd94 e73d 9dcb 0d3d 5f3e d23d 7833 543d
00000080: a30d 743c 0a31 f93d 6778 693d d53f 9a3d
00000090: bce1 be3d e8c5 ba3d f0a8 683d b2fb b63d
000000a0: 2c27 803d 9de5 b6bc 54a8 803c 9bfa 5bbc
000000b0: 3beb 613d 5e18 223d 93c7 af3d 48e0 59bc
000000c0: 30f8 053d f81a f73d 67fa cb3c 48fb bc3d
000000d0: 4242 923c 424c 88bd ecf1 003e f7c5 3e3d
000000e0: a0ee 253d c502 e83d d450 953d 6ba9 983d
000000f0: ef55 29bd ed67 893d b0b3 ec3c 0d74 7d3d
00000100: ce78 af3d 2794 10bc 2e67 f13d 03ea b53d
00000110: aecc 133e 715f d13d 86ca dabc 52aa 92bd
00000120: f249 a83c edf7 f63c 7435 013e ea4c 263d
00000130: 5afd d93d 0866 74bd cd74 2f3d d9b3 8d3d

fc_2.weight f4 [10, 80]
0.13072155 -0.08558354 0.024461217 0.13718201 0.019642092 0.14546485 -0.027151441 -0.05976808
-0.053197537 0.022671344 0.10913582 0.113768876 0.029886164 0.08647204 0.08653579 0.00050010317
0.09325476 0.08235235 0.08235954 0.02230701 -0.038444325 0.15668675 0.09587039 -0.057834394
0.046344373 -0.034380797 -0.10134128 -0.029943578 -0.0057413196 0.042507607 0.13807724 0.13988084
-0.040382583 0.15149191 -0.0038468011 0.15504818 0.011184064 0.13932376 -0.0690116 -0.017403577
0.04004298 0.012816175 0.05660239 -0.010388991 0.0077690673 0.06502514 0.053796638 -0.055825632
-0.09380604 0.07039614 0.09253373 0.077287756 -0.08823919 -0.04975173 0.015758283 0.15158951
0.12725627 0.08891213 0.09110922 -0.02412593 -0.041822374 0.03750414 0.07087637 0.06000757
0.110811226 -0.09986453 0.035319693 0.056291707 0.026140476 0.06743841 -0.06663275 -0.058998905
0.0856822 0.11244195 0.14622155 0.013063384 0.0876777 -0.02787113 -0.065991424 0.12772004
0.05967519 -0.06817542 -0.0034906866 -0.11337916 -0.045816984 -0.076189324 0.014688611 -0.09409475
-0.061999913 -0.07539034 0.012807134 -0.0026891385 0.036917884 0.09863058 0.08061767 0.08064377
0.0941868 0.068729706 0.050883144 0.033968307 -0.06774567 -0.13823523 -0.055733953 -0.037251584
-0.0048148558 -0.0012881483 -0.0049842834 0.029989028 -0.10567717 -0.021363225 -0.12856998 -0.04327541
-0.08027561 0.079794936 -0.06281252 -0.11676094 -0.023917353 -0.051165283 -0.03245423 0.061561946
-0.021219078 0.10046951 -0.06971648 0.0074667633 0.0737951 -0.06448326 -0.12181629 -0.016301613
-0.013646557 0.065643325 -0.06703501 -0.118561886 0.029567905 -0.021681197 0.072909914 -0.019987889
0.04864919 -0.009034663 0.045045495 0.0018392707 -0.07415554 -0.04629159 0.09263761 0.0098875705
-0.09116761 0.092527315 0.006146566 -0.09606028 -0.024178872 0.06391486 0.07147494 -0.11176932
-0.018844869 0.04578375 0.003144023 -0.1151623 -0.10328102 -0.061638188 -0.11540588 -0.028293349
0.06641243 0.095369995 0.10041769 0.12641187 0.07783271 0.08544997 -0.042541847 0.18439002
0.11468462 -0.095835924 -0.04744321 0.09713991 0.06613928 0.061111208 0.10168449 -0.03771503
0.12590294 0.1647469 0.18827471 -0.07310439 0.007615265 0.06947059 0.046027873 0.08039233
0.033483166 0.04252167 0.048236534 0.07060038 0.162148 -0.033036027 -0.05032543 0.012844855
0.014099383 0.004983241 0.080530375 0.13250226 0.11288926 -0.061103288 -0.015214402 0.14383902
-0.033500277 -0.051670123 -0.045268573 0.062164012 0.05496582 0.08504262 0.08642517 0.003556463
-0.052958053 0.17460312 0.11625646 0.07350187 -0.06952542 -0.04861322 -0.0005900052 -0.045452684
0.07721923 0.05188094 0.06328519 0.17148481 -0.07887151 0.026394416 -0.049065515 0.03995998
0.05383389 0.027894415 0.14198218 0.07380458 0.17259148 0.055005603 -0.026739301 -0.01109875
0.10987352 0.16879584 0.13561441 -0.032922838 0.025453825 -0.016746145 -0.07848827 -0.053682193
0.06336604 -0.039125666 0.15859881 -0.029340766 0.11690597 0.045397606 -0.004468059 0.045585435
-0.030877843 0.03421438 0.10772918 0.117501706 0.1066468 0.08981515 -0.03272328 0.061286718
00000000: dfdb 053e 6c46 afbd e462 c83c 7179 0c3e
00000010: 74e8 a03c bdf4 143e b36c debc 60cf 74bd
00000020: a9e5 59bd 41b9 b93c 9a82 df3d a8ff e83d
00000030: d4d3 f43c 4118 b13d ad39 b13d 5b19 033a
00000040: 5afc be3d 59a8 a83d 1eac a83d 31bd b63c
00000050: cc77 1dbd 7e72 203e b257 c43d c2e3 6cbd
00000060: 99d3 3d3d e1d2 0cbd 048c cfbd 3c4c f5bc
00000070: ae21 bcbb 751c 2e3d 1f64 0d3e ec3c 0f3e
00000080: 3568 25bd b220 1b3e 9d1a 7cbb f3c4 1e3e
00000090: 5d3d 373c e3aa 0e3e f455 8dbd f291 8ebc
000000a0: 1c04 243d effa 513c e8d7 673d 9636 2abc
000000b0: a993 fe3b e72b 853d dd59 5c3d 6ba9 64bd
000000c0: 621d c0bd da2b 903d 5382 bd3d 0b49 9e3d
000000d0: c0b6 b4bd 78c8 4bbd 8417 813c 483a 1b3e
000000e0: 784f 023e 9017 b63d 7997 ba3d bea3 c5bc
000000f0: f04d 2bbd f19d 193d a127 913d 7fca 753d
00000100: fff0 e23d c685 ccbd 62ab 103d 2292 663d
00000110: 8d24 d63c 261d 8a3d c076 88bd d6a8 71bd
00000120: 267a af3d f747 e63d 1abb 153e ce07 563c
00000130: 5e90 b33d ff51 e4bc 8326 87bd 0bc9 023e
00000140: f96d 743d 8e9f 8bbd 01c4 64bb 5533 e8bd
00000150: 97aa 3bbd 2609 9cbd 80a8 703c c0b4 c0bd
00000160: 9ff3 7dbd 4066 9abd 03d5 513c 423c 30bb
00000170: 3537 173d d4fe c93d e11a a53d 9028 a53d
00000180: 02e5 c03d 29c2 8c3d d86a 503d 5a22 0b3d
00000190: 3ebe 8abd 898d 0dbe 4949 64bd 1e95 18bd
000001a0: f0c5 9dbb 16d7 a8ba 3353 a3bb 8dab f53c
000001b0: 466d d8bd ee01 afbc d9a7 03be 8e41 31bd
000001c0: 8a67 a4bd 876b a33d daa3 80bd 5c20 efbd
000001d0: 53ee c3bc b092 51bd baee 04bd 6128 7c3d
000001e0: a2d3 adbc f5c2 cd3d 84c7 8ebd c0ab f43b
000001f0: e321 973d cd0f 84bd d27a f9bd f68a 85bc
00000200: cf95 5fbc 0270 863d a749 89bd 93d0 f2bd
00000210: 6438 f23c c49c b1bc cb51 953d a4bd a3bc
00000220: 6044 473d 2006 14bc a081 383d af13 f13a
00000230: dcde 97bd 409c 3dbd cab8 bd3d 7aff 213c
00000240: 15b6 babd f67e bd3d 2269 c93b 41bb c4bd
00000250: c512 c6bc cbe5 823d 7461 923d 50e7 e4bd
00000260: 8e60 9abc be87 3b3d f40b 4e3b 36da ebbd
00000270: 0085 d3bd 5378 7cbd eb59 ecbd 74c7 e7bc
00000280: 3d03 883d 5851 c33d caa7 cd3d 1d72 013e
00000290: c266 9f3d 6500 af3d 5c40 2ebd bdd0 3c3e
000002a0: c5df ea3d a045 c4bd d053 42bd 4af1 c63d
000002b0: 0874 873d bf4f 7a3d f53f d03d 137b 1abd
000002c0: b3ec 003e 69b3 283e 16cb 403e c1b7 95bd
000002d0: 7989 f93b 9946 8e3d b987 3c3d bca4 a43d
000002e0: a525 093d 342b 2e3d ac93 453d ef96 903d
000002f0: 200a 263e c950 07bd 0a22 4ebd 3a73 523c
00000300: 1901 673c 754a a33b 1ced a43d acae 073e
00000310: 7c32 e73d 7147 7abd d445 79bc 894a 133e
00000320: 9637 09bd 0da4 53bd 8a6b 39bd b19f 7e3d
00000330: d723 613d d32a ae3d aeff b03d 8c13 693b
00000340: 8bea 58bd 29cb 323e de17 ee3d 2688 963d
00000350: 5863 8ebd a81e 47bd 94aa 1aba 982c 3abd
00000360: 1e25 9e3d 1c81 543d aa9b 813d b799 2f3e
00000370: 6387 a1bd 1a39 d83c ecf8 48bd 13ad 233d
00000380: ed80 5c3d d482 e43c c763 113e db26 973d
00000390: d2bb 303e 8e4d 613d 610c dbbc 88d7 35bc
000003a0: 5e05 e13d d1d8 2c3e 81de 0a3e 19da 06bd
000003b0: 8a84 d03c 362f 89bc 75be a0bd dce1 5bbd
000003c0: 0ec6 813d 3c42 20bd ba67 223e 0c5c f0bc
000003d0: 666c ef3d d7f2 393d cc68 92bb cbb7 3a3d
000003e0: 88f3 fcbc 6124 0c3d 1ea1 dc3d bca4 f03d
000003f0: a369 da3d 01f1 b73d d908 06bd c807 7b3d

fc_2.bias f4 [10]
0.1471632 -0.06788078 0.07083318 -0.00757663 0.07262167 -0.056768674 0.13845223 0.19576389
0.048884083 0.081260145
00000000: f3b1 163e 1405 8bbd fc10 913d 6145 f8bb
00000010: acba 943d 4586 68bd 6cc6 0d3e 5476 483e
00000020: ad3a 483d b86b a63d

fc_3.weight f4 [1, 10]
-0.14091392 0.22097918 -0.10298803 -0.1363049 0.27512878 0.2524251 -0.1991547 -0.08250205
-0.14939393 -0.20474455
00000000: bd4b 10be 5e48 623e 63eb d2bd 8393 0bbe
00000010: aedd 8c3e dd3d 813e 36ef 4bbe d6f6 a8bd
00000020: b9fa 18be 8ea8 51be
